…
stage4.0.rbr_dense.conv.weight USE weight decay
stage4.0.rbr_dense.bn.weight has no weight decay
stage4.0.rbr_dense.bn.bias has no weight decay
stage4.0.rbr_1x1.conv.weight USE weight decay
stage4.0.rbr_whbn.weight has no weight decay
stage4.0.rbr_whbn.bias has no weight decay
linear.weight USE weight decay
linear.bias has no weight decay
================================== SGD nest, momentum = 0.9, wd = 0.0001
[32m[2023-07-06 16:31:08 RepVGG-A0][33m(main.py 89)[39m: INFO RepVGG(
  (stage0): RepVGGBlock(
    (nonlinearity): ReLU()
    (se): Identity()
    (rbr_dense): Sequential(
      (conv): Conv2d(3, 48, kernel_size=(3, 3), stride=(2, 2), padding=(1, 1), bias=False)
      (bn): BatchNorm2d(48, eps=1e-05, momentum=0.1, affine=True, track_running_stats=True)
    )
    (rbr_1x1): Sequential(
      (conv): Conv2d(3, 48, kernel_size=(1, 1), stride=(2, 2), bias=False)
    )
    (rbr_whbn): BatchNorm2d(3, eps=1e-05, momentum=0.1, affine=True, track_running_stats=True)
  )
  (stage1): ModuleList(
    (0): RepVGGBlock(
      (nonlinearity): ReLU()
      (se): Identity()
      (rbr_dense): Sequential(
        (conv): Conv2d(48, 48, kernel_size=(3, 3), stride=(2, 2), padding=(1, 1), bias=False)
        (bn): BatchNorm2d(48, eps=1e-05, momentum=0.1, affine=True, track_running_stats=True)
      )
      (rbr_1x1): Sequential(
        (conv): Conv2d(48, 48, kernel_size=(1, 1), stride=(2, 2), bias=False)
      )
      (rbr_whbn): BatchNorm2d(48, eps=1e-05, momentum=0.1, affine=True, track_running_stats=True)
    )
    (1): RepVGGBlock(
      (nonlinearity): ReLU()
      (se): Identity()
      (rbr_identity): Identity()
      (rbr_dense): Sequential(
        (conv): Conv2d(48, 48, kernel_size=(3, 3), stride=(1, 1), padding=(1, 1), bias=False)
        (bn): BatchNorm2d(48, eps=1e-05, momentum=0.1, affine=True, track_running_stats=True)
      )
      (rbr_1x1): Sequential(
        (conv): Conv2d(48, 48, kernel_size=(1, 1), stride=(1, 1), bias=False)
      )
      (rbr_whbn): BatchNorm2d(48, eps=1e-05, momentum=0.1, affine=True, track_running_stats=True)
    )
  )
  (stage2): ModuleList(
    (0): RepVGGBlock(
      (nonlinearity): ReLU()
      (se): Identity()
      (rbr_dense): Sequential(
        (conv): Conv2d(48, 96, kernel_size=(3, 3), stride=(2, 2), padding=(1, 1), bias=False)
        (bn): BatchNorm2d(96, eps=1e-05, momentum=0.1, affine=True, track_running_stats=True)
      )
      (rbr_1x1): Sequential(
        (conv): Conv2d(48, 96, kernel_size=(1, 1), stride=(2, 2), bias=False)
      )
      (rbr_whbn): BatchNorm2d(48, eps=1e-05, momentum=0.1, affine=True, track_running_stats=True)
    )
    (1): RepVGGBlock(
      (nonlinearity): ReLU()
      (se): Identity()
      (rbr_identity): Identity()
      (rbr_dense): Sequential(
        (conv): Conv2d(96, 96, kernel_size=(3, 3), stride=(1, 1), padding=(1, 1), bias=False)
        (bn): BatchNorm2d(96, eps=1e-05, momentum=0.1, affine=True, track_running_stats=True)
      )
      (rbr_1x1): Sequential(
        (conv): Conv2d(96, 96, kernel_size=(1, 1), stride=(1, 1), bias=False)
      )
      (rbr_whbn): BatchNorm2d(96, eps=1e-05, momentum=0.1, affine=True, track_running_stats=True)
    )
    (2): RepVGGBlock(
      (nonlinearity): ReLU()
      (se): Identity()
      (rbr_identity): Identity()
      (rbr_dense): Sequential(
        (conv): Conv2d(96, 96, kernel_size=(3, 3), stride=(1, 1), padding=(1, 1), bias=False)
        (bn): BatchNorm2d(96, eps=1e-05, momentum=0.1, affine=True, track_running_stats=True)
      )
      (rbr_1x1): Sequential(
        (conv): Conv2d(96, 96, kernel_size=(1, 1), stride=(1, 1), bias=False)
      )
      (rbr_whbn): BatchNorm2d(96, eps=1e-05, momentum=0.1, affine=True, track_running_stats=True)
    )
    (3): RepVGGBlock(
      (nonlinearity): ReLU()
      (se): Identity()
      (rbr_identity): Identity()
      (rbr_dense): Sequential(
        (conv): Conv2d(96, 96, kernel_size=(3, 3), stride=(1, 1), padding=(1, 1), bias=False)
        (bn): BatchNorm2d(96, eps=1e-05, momentum=0.1, affine=True, track_running_stats=True)
      )
      (rbr_1x1): Sequential(
        (conv): Conv2d(96, 96, kernel_size=(1, 1), stride=(1, 1), bias=False)
      )
      (rbr_whbn): BatchNorm2d(96, eps=1e-05, momentum=0.1, affine=True, track_running_stats=True)
    )
  )
  (stage3): ModuleList(
    (0): RepVGGBlock(
      (nonlinearity): ReLU()
      (se): Identity()
      (rbr_dense): Sequential(
        (conv): Conv2d(96, 192, kernel_size=(3, 3), stride=(2, 2), padding=(1, 1), bias=False)
        (bn): BatchNorm2d(192, eps=1e-05, momentum=0.1, affine=True, track_running_stats=True)
      )
      (rbr_1x1): Sequential(
        (conv): Conv2d(96, 192, kernel_size=(1, 1), stride=(2, 2), bias=False)
      )
      (rbr_whbn): BatchNorm2d(96, eps=1e-05, momentum=0.1, affine=True, track_running_stats=True)
    )
    (1): RepVGGBlock(
      (nonlinearity): ReLU()
      (se): Identity()
      (rbr_identity): Identity()
      (rbr_dense): Sequential(
        (conv): Conv2d(192, 192, kernel_size=(3, 3), stride=(1, 1), padding=(1, 1), bias=False)
        (bn): BatchNorm2d(192, eps=1e-05, momentum=0.1, affine=True, track_running_stats=True)
      )
      (rbr_1x1): Sequential(
        (conv): Conv2d(192, 192, kernel_size=(1, 1), stride=(1, 1), bias=False)
      )
      (rbr_whbn): BatchNorm2d(192, eps=1e-05, momentum=0.1, affine=True, track_running_stats=True)
    )
    (2): RepVGGBlock(
      (nonlinearity): ReLU()
      (se): Identity()
      (rbr_identity): Identity()
      (rbr_dense): Sequential(
        (conv): Conv2d(192, 192, kernel_size=(3, 3), stride=(1, 1), padding=(1, 1), bias=False)
        (bn): BatchNorm2d(192, eps=1e-05, momentum=0.1, affine=True, track_running_stats=True)
      )
      (rbr_1x1): Sequential(
        (conv): Conv2d(192, 192, kernel_size=(1, 1), stride=(1, 1), bias=False)
      )
      (rbr_whbn): BatchNorm2d(192, eps=1e-05, momentum=0.1, affine=True, track_running_stats=True)
    )
    (3): RepVGGBlock(
      (nonlinearity): ReLU()
      (se): Identity()
      (rbr_identity): Identity()
      (rbr_dense): Sequential(
        (conv): Conv2d(192, 192, kernel_size=(3, 3), stride=(1, 1), padding=(1, 1), bias=False)
        (bn): BatchNorm2d(192, eps=1e-05, momentum=0.1, affine=True, track_running_stats=True)
      )
      (rbr_1x1): Sequential(
        (conv): Conv2d(192, 192, kernel_size=(1, 1), stride=(1, 1), bias=False)
      )
      (rbr_whbn): BatchNorm2d(192, eps=1e-05, momentum=0.1, affine=True, track_running_stats=True)
    )
    (4): RepVGGBlock(
      (nonlinearity): ReLU()
      (se): Identity()
      (rbr_identity): Identity()
      (rbr_dense): Sequential(
        (conv): Conv2d(192, 192, kernel_size=(3, 3), stride=(1, 1), padding=(1, 1), bias=False)
        (bn): BatchNorm2d(192, eps=1e-05, momentum=0.1, affine=True, track_running_stats=True)
      )
      (rbr_1x1): Sequential(
        (conv): Conv2d(192, 192, kernel_size=(1, 1), stride=(1, 1), bias=False)
      )
      (rbr_whbn): BatchNorm2d(192, eps=1e-05, momentum=0.1, affine=True, track_running_stats=True)
    )
    (5): RepVGGBlock(
      (nonlinearity): ReLU()
      (se): Identity()
      (rbr_identity): Identity()
      (rbr_dense): Sequential(
        (conv): Conv2d(192, 192, kernel_size=(3, 3), stride=(1, 1), padding=(1, 1), bias=False)
        (bn): BatchNorm2d(192, eps=1e-05, momentum=0.1, affine=True, track_running_stats=True)
      )
      (rbr_1x1): Sequential(
        (conv): Conv2d(192, 192, kernel_size=(1, 1), stride=(1, 1), bias=False)
      )
      (rbr_whbn): BatchNorm2d(192, eps=1e-05, momentum=0.1, affine=True, track_running_stats=True)
    )
    (6): RepVGGBlock(
      (nonlinearity): ReLU()
      (se): Identity()
      (rbr_identity): Identity()
      (rbr_dense): Sequential(
        (conv): Conv2d(192, 192, kernel_size=(3, 3), stride=(1, 1), padding=(1, 1), bias=False)
        (bn): BatchNorm2d(192, eps=1e-05, momentum=0.1, affine=True, track_running_stats=True)
      )
      (rbr_1x1): Sequential(
        (conv): Conv2d(192, 192, kernel_size=(1, 1), stride=(1, 1), bias=False)
      )
      (rbr_whbn): BatchNorm2d(192, eps=1e-05, momentum=0.1, affine=True, track_running_stats=True)
    )
    (7): RepVGGBlock(
      (nonlinearity): ReLU()
      (se): Identity()
      (rbr_identity): Identity()
      (rbr_dense): Sequential(
        (conv): Conv2d(192, 192, kernel_size=(3, 3), stride=(1, 1), padding=(1, 1), bias=False)
        (bn): BatchNorm2d(192, eps=1e-05, momentum=0.1, affine=True, track_running_stats=True)
      )
      (rbr_1x1): Sequential(
        (conv): Conv2d(192, 192, kernel_size=(1, 1), stride=(1, 1), bias=False)
      )
      (rbr_whbn): BatchNorm2d(192, eps=1e-05, momentum=0.1, affine=True, track_running_stats=True)
    )
    (8): RepVGGBlock(
      (nonlinearity): ReLU()
      (se): Identity()
      (rbr_identity): Identity()
      (rbr_dense): Sequential(
        (conv): Conv2d(192, 192, kernel_size=(3, 3), stride=(1, 1), padding=(1, 1), bias=False)
        (bn): BatchNorm2d(192, eps=1e-05, momentum=0.1, affine=True, track_running_stats=True)
      )
      (rbr_1x1): Sequential(
        (conv): Conv2d(192, 192, kernel_size=(1, 1), stride=(1, 1), bias=False)
      )
      (rbr_whbn): BatchNorm2d(192, eps=1e-05, momentum=0.1, affine=True, track_running_stats=True)
    )
    (9): RepVGGBlock(
      (nonlinearity): ReLU()
      (se): Identity()
      (rbr_identity): Identity()
      (rbr_dense): Sequential(
        (conv): Conv2d(192, 192, kernel_size=(3, 3), stride=(1, 1), padding=(1, 1), bias=False)
        (bn): BatchNorm2d(192, eps=1e-05, momentum=0.1, affine=True, track_running_stats=True)
      )
      (rbr_1x1): Sequential(
        (conv): Conv2d(192, 192, kernel_size=(1, 1), stride=(1, 1), bias=False)
      )
      (rbr_whbn): BatchNorm2d(192, eps=1e-05, momentum=0.1, affine=True, track_running_stats=True)
    )
    (10): RepVGGBlock(
      (nonlinearity): ReLU()
      (se): Identity()
      (rbr_identity): Identity()
      (rbr_dense): Sequential(
        (conv): Conv2d(192, 192, kernel_size=(3, 3), stride=(1, 1), padding=(1, 1), bias=False)
        (bn): BatchNorm2d(192, eps=1e-05, momentum=0.1, affine=True, track_running_stats=True)
      )
      (rbr_1x1): Sequential(
        (conv): Conv2d(192, 192, kernel_size=(1, 1), stride=(1, 1), bias=False)
      )
      (rbr_whbn): BatchNorm2d(192, eps=1e-05, momentum=0.1, affine=True, track_running_stats=True)
    )
    (11): RepVGGBlock(
      (nonlinearity): ReLU()
      (se): Identity()
      (rbr_identity): Identity()
      (rbr_dense): Sequential(
        (conv): Conv2d(192, 192, kernel_size=(3, 3), stride=(1, 1), padding=(1, 1), bias=False)
        (bn): BatchNorm2d(192, eps=1e-05, momentum=0.1, affine=True, track_running_stats=True)
      )
      (rbr_1x1): Sequential(
        (conv): Conv2d(192, 192, kernel_size=(1, 1), stride=(1, 1), bias=False)
      )
      (rbr_whbn): BatchNorm2d(192, eps=1e-05, momentum=0.1, affine=True, track_running_stats=True)
    )
    (12): RepVGGBlock(
      (nonlinearity): ReLU()
      (se): Identity()
      (rbr_identity): Identity()
      (rbr_dense): Sequential(
        (conv): Conv2d(192, 192, kernel_size=(3, 3), stride=(1, 1), padding=(1, 1), bias=False)
        (bn): BatchNorm2d(192, eps=1e-05, momentum=0.1, affine=True, track_running_stats=True)
      )
      (rbr_1x1): Sequential(
        (conv): Conv2d(192, 192, kernel_size=(1, 1), stride=(1, 1), bias=False)
      )
      (rbr_whbn): BatchNorm2d(192, eps=1e-05, momentum=0.1, affine=True, track_running_stats=True)
    )
    (13): RepVGGBlock(
      (nonlinearity): ReLU()
      (se): Identity()
      (rbr_identity): Identity()
      (rbr_dense): Sequential(
        (conv): Conv2d(192, 192, kernel_size=(3, 3), stride=(1, 1), padding=(1, 1), bias=False)
        (bn): BatchNorm2d(192, eps=1e-05, momentum=0.1, affine=True, track_running_stats=True)
      )
      (rbr_1x1): Sequential(
        (conv): Conv2d(192, 192, kernel_size=(1, 1), stride=(1, 1), bias=False)
      )
      (rbr_whbn): BatchNorm2d(192, eps=1e-05, momentum=0.1, affine=True, track_running_stats=True)
    )
  )
  (stage4): ModuleList(
    (0): RepVGGBlock(
      (nonlinearity): ReLU()
      (se): Identity()
      (rbr_dense): Sequential(
        (conv): Conv2d(192, 1280, kernel_size=(3, 3), stride=(2, 2), padding=(1, 1), bias=False)
        (bn): BatchNorm2d(1280, eps=1e-05, momentum=0.1, affine=True, track_running_stats=True)
      )
      (rbr_1x1): Sequential(
        (conv): Conv2d(192, 1280, kernel_size=(1, 1), stride=(2, 2), bias=False)
      )
      (rbr_whbn): BatchNorm2d(192, eps=1e-05, momentum=0.1, affine=True, track_running_stats=True)
    )
  )
  (gap): AdaptiveAvgPool2d(output_size=1)
  (linear): Linear(in_features=1280, out_features=1000, bias=True)
)
[32m[2023-07-06 16:31:08 RepVGG-A0][33m(main.py 106)[39m: INFO number of params: 9100750
[32m[2023-07-06 16:31:08 RepVGG-A0][33m(main.py 155)[39m: INFO Start training
/opt/conda/lib/python3.8/site-packages/torchvision/transforms/transforms.py:329: UserWarning: Argument 'interpolation' of type int is deprecated since 0.13 and will be removed in 0.15. Please use InterpolationMode enum.
…
