…
  EMA_ALPHA: 0.0
  EMA_UPDATE_PERIOD: 8
  EPOCHS: 300
  LR_SCHEDULER:
    DECAY_EPOCHS: 30
    DECAY_RATE: 0.1
    NAME: cosine
  MIN_LR: 0.0
  OPTIMIZER:
    BETAS:
    - 0.9
    - 0.999
    EPS: 1.0e-08
    MOMENTUM: 0.9
    NAME: sgd
  SCALES_PATH: null
  START_EPOCH: 0
  USE_CHECKPOINT: true
  WARMUP_EPOCHS: 5
  WARMUP_LR: 0.0
  WEIGHT_DECAY: 0.0001

[2023-07-07 06:57:07 RepVGG-A0] (main.py 84): INFO Creating model:RepVGG-A0
[2023-07-07 06:57:07 RepVGG-A0] (main.py 89): INFO RepVGG(
  (stage0): RepVGGBlock(
    (nonlinearity): ReLU()
    (se): Identity()
    (rbr_dense): Sequential(
      (conv): Conv2d(3, 48, kernel_size=(3, 3), stride=(2, 2), padding=(1, 1), bias=False)
      (bn): BatchNorm2d(48, eps=1e-05, momentum=0.1, affine=True, track_running_stats=True)
    )
    (rbr_1x1): Sequential(
      (conv): Conv2d(3, 48, kernel_size=(1, 1), stride=(2, 2), bias=False)
    )
    (rbr_whbn): BatchNorm2d(48, eps=1e-05, momentum=0.1, affine=True, track_running_stats=True)
  )
  (stage1): ModuleList(
    (0): RepVGGBlock(
      (nonlinearity): ReLU()
      (se): Identity()
      (rbr_dense): Sequential(
        (conv): Conv2d(48, 48, kernel_size=(3, 3), stride=(2, 2), padding=(1, 1), bias=False)
        (bn): BatchNorm2d(48, eps=1e-05, momentum=0.1, affine=True, track_running_stats=True)
      )
      (rbr_1x1): Sequential(
        (conv): Conv2d(48, 48, kernel_size=(1, 1), stride=(2, 2), bias=False)
      )
      (rbr_whbn): BatchNorm2d(48, eps=1e-05, momentum=0.1, affine=True, track_running_stats=True)
    )
    (1): RepVGGBlock(
      (nonlinearity): ReLU()
      (se): Identity()
      (rbr_identity): Identity()
      (rbr_dense): Sequential(
        (conv): Conv2d(48, 48, kernel_size=(3, 3), stride=(1, 1), padding=(1, 1), bias=False)
        (bn): BatchNorm2d(48, eps=1e-05, momentum=0.1, affine=True, track_running_stats=True)
      )
      (rbr_1x1): Sequential(
        (conv): Conv2d(48, 48, kernel_size=(1, 1), stride=(1, 1), bias=False)
      )
      (rbr_whbn): BatchNorm2d(48, eps=1e-05, momentum=0.1, affine=True, track_running_stats=True)
    )
  )
  (stage2): ModuleList(
    (0): RepVGGBlock(
      (nonlinearity): ReLU()
      (se): Identity()
      (rbr_dense): Sequential(
        (conv): Conv2d(48, 96, kernel_size=(3, 3), stride=(2, 2), padding=(1, 1), bias=False)
        (bn): BatchNorm2d(96, eps=1e-05, momentum=0.1, affine=True, track_running_stats=True)
      )
      (rbr_1x1): Sequential(
        (conv): Conv2d(48, 96, kernel_size=(1, 1), stride=(2, 2), bias=False)
      )
      (rbr_whbn): BatchNorm2d(96, eps=1e-05, momentum=0.1, affine=True, track_running_stats=True)
    )
    (1): RepVGGBlock(
      (nonlinearity): ReLU()
      (se): Identity()
      (rbr_identity): Identity()
      (rbr_dense): Sequential(
        (conv): Conv2d(96, 96, kernel_size=(3, 3), stride=(1, 1), padding=(1, 1), bias=False)
        (bn): BatchNorm2d(96, eps=1e-05, momentum=0.1, affine=True, track_running_stats=True)
      )
      (rbr_1x1): Sequential(
        (conv): Conv2d(96, 96, kernel_size=(1, 1), stride=(1, 1), bias=False)
      )
      (rbr_whbn): BatchNorm2d(96, eps=1e-05, momentum=0.1, affine=True, track_running_stats=True)
    )
    (2): RepVGGBlock(
      (nonlinearity): ReLU()
      (se): Identity()
      (rbr_identity): Identity()
      (rbr_dense): Sequential(
        (conv): Conv2d(96, 96, kernel_size=(3, 3), stride=(1, 1), padding=(1, 1), bias=False)
        (bn): BatchNorm2d(96, eps=1e-05, momentum=0.1, affine=True, track_running_stats=True)
      )
      (rbr_1x1): Sequential(
        (conv): Conv2d(96, 96, kernel_size=(1, 1), stride=(1, 1), bias=False)
      )
      (rbr_whbn): BatchNorm2d(96, eps=1e-05, momentum=0.1, affine=True, track_running_stats=True)
    )
    (3): RepVGGBlock(
      (nonlinearity): ReLU()
      (se): Identity()
      (rbr_identity): Identity()
      (rbr_dense): Sequential(
        (conv): Conv2d(96, 96, kernel_size=(3, 3), stride=(1, 1), padding=(1, 1), bias=False)
        (bn): BatchNorm2d(96, eps=1e-05, momentum=0.1, affine=True, track_running_stats=True)
      )
      (rbr_1x1): Sequential(
        (conv): Conv2d(96, 96, kernel_size=(1, 1), stride=(1, 1), bias=False)
      )
      (rbr_whbn): BatchNorm2d(96, eps=1e-05, momentum=0.1, affine=True, track_running_stats=True)
    )
  )
  (stage3): ModuleList(
    (0): RepVGGBlock(
      (nonlinearity): ReLU()
      (se): Identity()
      (rbr_dense): Sequential(
        (conv): Conv2d(96, 192, kernel_size=(3, 3), stride=(2, 2), padding=(1, 1), bias=False)
        (bn): BatchNorm2d(192, eps=1e-05, momentum=0.1, affine=True, track_running_stats=True)
      )
      (rbr_1x1): Sequential(
        (conv): Conv2d(96, 192, kernel_size=(1, 1), stride=(2, 2), bias=False)
      )
      (rbr_whbn): BatchNorm2d(192, eps=1e-05, momentum=0.1, affine=True, track_running_stats=True)
    )
    (1): RepVGGBlock(
      (nonlinearity): ReLU()
      (se): Identity()
      (rbr_identity): Identity()
      (rbr_dense): Sequential(
        (conv): Conv2d(192, 192, kernel_size=(3, 3), stride=(1, 1), padding=(1, 1), bias=False)
        (bn): BatchNorm2d(192, eps=1e-05, momentum=0.1, affine=True, track_running_stats=True)
      )
      (rbr_1x1): Sequential(
        (conv): Conv2d(192, 192, kernel_size=(1, 1), stride=(1, 1), bias=False)
      )
      (rbr_whbn): BatchNorm2d(192, eps=1e-05, momentum=0.1, affine=True, track_running_stats=True)
    )
    (2): RepVGGBlock(
      (nonlinearity): ReLU()
      (se): Identity()
      (rbr_identity): Identity()
      (rbr_dense): Sequential(
        (conv): Conv2d(192, 192, kernel_size=(3, 3), stride=(1, 1), padding=(1, 1), bias=False)
        (bn): BatchNorm2d(192, eps=1e-05, momentum=0.1, affine=True, track_running_stats=True)
      )
      (rbr_1x1): Sequential(
        (conv): Conv2d(192, 192, kernel_size=(1, 1), stride=(1, 1), bias=False)
      )
      (rbr_whbn): BatchNorm2d(192, eps=1e-05, momentum=0.1, affine=True, track_running_stats=True)
    )
    (3): RepVGGBlock(
      (nonlinearity): ReLU()
      (se): Identity()
      (rbr_identity): Identity()
      (rbr_dense): Sequential(
        (conv): Conv2d(192, 192, kernel_size=(3, 3), stride=(1, 1), padding=(1, 1), bias=False)
        (bn): BatchNorm2d(192, eps=1e-05, momentum=0.1, affine=True, track_running_stats=True)
      )
      (rbr_1x1): Sequential(
        (conv): Conv2d(192, 192, kernel_size=(1, 1), stride=(1, 1), bias=False)
      )
      (rbr_whbn): BatchNorm2d(192, eps=1e-05, momentum=0.1, affine=True, track_running_stats=True)
    )
    (4): RepVGGBlock(
      (nonlinearity): ReLU()
      (se): Identity()
      (rbr_identity): Identity()
      (rbr_dense): Sequential(
        (conv): Conv2d(192, 192, kernel_size=(3, 3), stride=(1, 1), padding=(1, 1), bias=False)
        (bn): BatchNorm2d(192, eps=1e-05, momentum=0.1, affine=True, track_running_stats=True)
      )
      (rbr_1x1): Sequential(
        (conv): Conv2d(192, 192, kernel_size=(1, 1), stride=(1, 1), bias=False)
      )
      (rbr_whbn): BatchNorm2d(192, eps=1e-05, momentum=0.1, affine=True, track_running_stats=True)
    )
    (5): RepVGGBlock(
      (nonlinearity): ReLU()
      (se): Identity()
      (rbr_identity): Identity()
      (rbr_dense): Sequential(
        (conv): Conv2d(192, 192, kernel_size=(3, 3), stride=(1, 1), padding=(1, 1), bias=False)
        (bn): BatchNorm2d(192, eps=1e-05, momentum=0.1, affine=True, track_running_stats=True)
      )
      (rbr_1x1): Sequential(
        (conv): Conv2d(192, 192, kernel_size=(1, 1), stride=(1, 1), bias=False)
      )
      (rbr_whbn): BatchNorm2d(192, eps=1e-05, momentum=0.1, affine=True, track_running_stats=True)
    )
    (6): RepVGGBlock(
      (nonlinearity): ReLU()
      (se): Identity()
      (rbr_identity): Identity()
      (rbr_dense): Sequential(
        (conv): Conv2d(192, 192, kernel_size=(3, 3), stride=(1, 1), padding=(1, 1), bias=False)
        (bn): BatchNorm2d(192, eps=1e-05, momentum=0.1, affine=True, track_running_stats=True)
      )
      (rbr_1x1): Sequential(
        (conv): Conv2d(192, 192, kernel_size=(1, 1), stride=(1, 1), bias=False)
      )
      (rbr_whbn): BatchNorm2d(192, eps=1e-05, momentum=0.1, affine=True, track_running_stats=True)
    )
    (7): RepVGGBlock(
      (nonlinearity): ReLU()
      (se): Identity()
      (rbr_identity): Identity()
      (rbr_dense): Sequential(
        (conv): Conv2d(192, 192, kernel_size=(3, 3), stride=(1, 1), padding=(1, 1), bias=False)
        (bn): BatchNorm2d(192, eps=1e-05, momentum=0.1, affine=True, track_running_stats=True)
      )
      (rbr_1x1): Sequential(
        (conv): Conv2d(192, 192, kernel_size=(1, 1), stride=(1, 1), bias=False)
      )
      (rbr_whbn): BatchNorm2d(192, eps=1e-05, momentum=0.1, affine=True, track_running_stats=True)
    )
    (8): RepVGGBlock(
      (nonlinearity): ReLU()
      (se): Identity()
      (rbr_identity): Identity()
      (rbr_dense): Sequential(
        (conv): Conv2d(192, 192, kernel_size=(3, 3), stride=(1, 1), padding=(1, 1), bias=False)
        (bn): BatchNorm2d(192, eps=1e-05, momentum=0.1, affine=True, track_running_stats=True)
      )
      (rbr_1x1): Sequential(
        (conv): Conv2d(192, 192, kernel_size=(1, 1), stride=(1, 1), bias=False)
      )
      (rbr_whbn): BatchNorm2d(192, eps=1e-05, momentum=0.1, affine=True, track_running_stats=True)
    )
    (9): RepVGGBlock(
      (nonlinearity): ReLU()
      (se): Identity()
      (rbr_identity): Identity()
      (rbr_dense): Sequential(
        (conv): Conv2d(192, 192, kernel_size=(3, 3), stride=(1, 1), padding=(1, 1), bias=False)
        (bn): BatchNorm2d(192, eps=1e-05, momentum=0.1, affine=True, track_running_stats=True)
      )
      (rbr_1x1): Sequential(
        (conv): Conv2d(192, 192, kernel_size=(1, 1), stride=(1, 1), bias=False)
      )
      (rbr_whbn): BatchNorm2d(192, eps=1e-05, momentum=0.1, affine=True, track_running_stats=True)
    )
    (10): RepVGGBlock(
      (nonlinearity): ReLU()
      (se): Identity()
      (rbr_identity): Identity()
      (rbr_dense): Sequential(
        (conv): Conv2d(192, 192, kernel_size=(3, 3), stride=(1, 1), padding=(1, 1), bias=False)
        (bn): BatchNorm2d(192, eps=1e-05, momentum=0.1, affine=True, track_running_stats=True)
      )
      (rbr_1x1): Sequential(
        (conv): Conv2d(192, 192, kernel_size=(1, 1), stride=(1, 1), bias=False)
      )
      (rbr_whbn): BatchNorm2d(192, eps=1e-05, momentum=0.1, affine=True, track_running_stats=True)
    )
    (11): RepVGGBlock(
      (nonlinearity): ReLU()
      (se): Identity()
      (rbr_identity): Identity()
      (rbr_dense): Sequential(
        (conv): Conv2d(192, 192, kernel_size=(3, 3), stride=(1, 1), padding=(1, 1), bias=False)
        (bn): BatchNorm2d(192, eps=1e-05, momentum=0.1, affine=True, track_running_stats=True)
      )
      (rbr_1x1): Sequential(
        (conv): Conv2d(192, 192, kernel_size=(1, 1), stride=(1, 1), bias=False)
      )
      (rbr_whbn): BatchNorm2d(192, eps=1e-05, momentum=0.1, affine=True, track_running_stats=True)
    )
    (12): RepVGGBlock(
      (nonlinearity): ReLU()
      (se): Identity()
      (rbr_identity): Identity()
      (rbr_dense): Sequential(
        (conv): Conv2d(192, 192, kernel_size=(3, 3), stride=(1, 1), padding=(1, 1), bias=False)
        (bn): BatchNorm2d(192, eps=1e-05, momentum=0.1, affine=True, track_running_stats=True)
      )
      (rbr_1x1): Sequential(
        (conv): Conv2d(192, 192, kernel_size=(1, 1), stride=(1, 1), bias=False)
      )
      (rbr_whbn): BatchNorm2d(192, eps=1e-05, momentum=0.1, affine=True, track_running_stats=True)
    )
    (13): RepVGGBlock(
      (nonlinearity): ReLU()
      (se): Identity()
      (rbr_identity): Identity()
      (rbr_dense): Sequential(
        (conv): Conv2d(192, 192, kernel_size=(3, 3), stride=(1, 1), padding=(1, 1), bias=False)
        (bn): BatchNorm2d(192, eps=1e-05, momentum=0.1, affine=True, track_running_stats=True)
      )
      (rbr_1x1): Sequential(
        (conv): Conv2d(192, 192, kernel_size=(1, 1), stride=(1, 1), bias=False)
      )
      (rbr_whbn): BatchNorm2d(192, eps=1e-05, momentum=0.1, affine=True, track_running_stats=True)
    )
  )
  (stage4): ModuleList(
    (0): RepVGGBlock(
      (nonlinearity): ReLU()
      (se): Identity()
      (rbr_dense): Sequential(
        (conv): Conv2d(192, 1280, kernel_size=(3, 3), stride=(2, 2), padding=(1, 1), bias=False)
        (bn): BatchNorm2d(1280, eps=1e-05, momentum=0.1, affine=True, track_running_stats=True)
      )
      (rbr_1x1): Sequential(
        (conv): Conv2d(192, 1280, kernel_size=(1, 1), stride=(2, 2), bias=False)
      )
      (rbr_whbn): BatchNorm2d(1280, eps=1e-05, momentum=0.1, affine=True, track_running_stats=True)
    )
  )
  (gap): AdaptiveAvgPool2d(output_size=1)
  (linear): Linear(in_features=1280, out_features=1000, bias=True)
)
[2023-07-07 06:57:07 RepVGG-A0] (main.py 106): INFO number of params: 9103304
[2023-07-07 06:57:07 RepVGG-A0] (main.py 155): INFO Start training
[2023-07-07 06:58:00 RepVGG-A0] (main.py 282): INFO Train: [0/300][0/78]	eta 1:08:54 lr 0.000000	time 53.0127 (53.0127)	loss 6.9263 (6.9263)	grad_norm 0.4532 (0.4532)	mem 39782MB
[2023-07-07 06:58:12 RepVGG-A0] (main.py 282): INFO Train: [0/300][10/78]	eta 0:06:42 lr 0.164103	time 1.2064 (5.9152)	loss 6.8744 (6.9127)	grad_norm 0.3863 (0.4375)	mem 39782MB
…
